…
parameters.keys():\n            model_inputs[\"use_cache\"] = False\n        return self.model(**model_inputs)\nFile:      ~/mambaforge/envs/llm_base/lib/python3.11/site-packages/transformers/pipelines/text_classification.py\nType:      method\n\n\nAh, we can see it calls the model of the classifier. This is the distilbert model we saw earlier! Now we can peek under the hood at the actual Transformer LLM.\n\n# the distilbert sentiment analysis model\nclassifier.model\n\nDistilBertForSequenceClassification(\n  (distilbert): DistilBertModel(\n    (embeddings): Embeddings(\n      (word_embeddings): Embedding(30522, 768, padding_idx=0)\n      (position_embeddings): Embedding(512, 768)\n      (LayerNorm): LayerNorm((768,), eps=1e-12, elementwise_affine=True)\n      (dropout): Dropout(p=0.1, inplace=False)\n    )\n    (transformer): Transformer(\n      (layer): ModuleList(\n        (0-5): 6 x TransformerBlock(\n          (attention): MultiHeadSelfAttention(\n            (dropout): Dropout(p=0.1, inplace=False)\n            (q_lin): Linear(in_features=768, out_features=768, bias=True)\n            (k_lin): Linear(in_features=768, out_features=768, bias=True)\n            (v_lin): Linear(in_features=768, out_features=768, bias=True)\n            (out_lin): Linear(in_features=768, out_features=768, bias=True)\n          )\n          (sa_layer_norm): LayerNorm((768,), eps=1e-12, elementwise_affine=True)\n          (ffn): FFN(\n            (dropout): Dropout(p=0.1, inplace=False)\n            (lin1): Linear(in_features=768, out_features=3072, bias=True)\n            (lin2): Linear(in_features=3072, out_features=768, bias=True)\n            (activation): GELUActivation()\n          )\n          (output_layer_norm): LayerNorm((768,), eps=1e-12, elementwise_affine=True)\n        )\n      )\n    )\n  )\n  (pre_classifier): Linear(in_features=768, out_features=768, bias=True)\n  (classifier): Linear(in_features=768, out_features=2, bias=True)\n  (dropout): Dropout(p=0.2, inplace=False)\n)\n\n\nWe will breakdown the different pieces in this model later on in the course.\nThe important takeaway for now is that this shows the main structure of most Transformer LLM models. The changes are mostly incremental from this foundation."
  },
  {
    "objectID": "blog/posts/fractal-llms/04-llama/index.html",
…
